functions/models/model_no_quant.tflite (tflite, 2788 bytes, 5 tensors)

dense_3/bias f4 [16]
0	0x00000000	0.0
1	0x3e3e2b2c	0.18571156
2	0x3ed37fe4	0.4130851
3	0x3e799522	0.24373296
4	0xbe98ba01	-0.2982941
5	0x00000000	0.0
6	0x3ed62353	0.41823825
7	0xbea1c20f	-0.31593367
8	0x3e4c524d	0.1995327
9	0x3ec68f8c	0.38781393
10	0xbd8b17c4	-0.06791642
11	0x3e3e5bda	0.18589726
12	0x00000000	0.0
13	0xbea83790	-0.3285489
14	0xbe8786c0	-0.26469994
15	0x3e55c649	0.20876421

dense_2/bias f4 [16]
0	0x3a26494e	0.0006343321
1	0x3e9bfeca	0.30467826
2	0xbe83ab44	-0.25716603
3	0x00000000	0.0
4	0x3ea99b9a	0.33126527
5	0x00000000	0.0
6	0x00000000	0.0
7	0x3e39be8c	0.18139094
8	0x00000000	0.0
9	0x00000000	0.0
10	0x3f6389ac	0.88881946
11	0x00000000	0.0
12	0x3e437b1a	0.19089928
13	0xbe903509	-0.28165463
14	0xbed6f32a	-0.41982394
15	0x00000000	0.0

std.constant f4 [16, 1]
0	0x3efe1eba	0.49632818
1	0x3df61831	0.12016333
2	0x3d929e7d	0.071591355
3	0xbe04856e	-0.12941524
4	0x3d56044d	0.052250195
5	0xbf0956fd	-0.5364836
6	0xbec41c88	-0.38303018
7	0x3e8e4937	0.27790233
8	0xbc1d8500	-0.009614229
9	0xbe3b51ae	-0.18292877
10	0xbe3d0e39	-0.18462457
11	0xbea9518e	-0.33070034
12	0x3ed247df	0.41070458
13	0x3f0149ac	0.5050304
14	0x3ddb2af1	0.1070155
15	0xbe0f65ec	-0.14003724

std.constant1 f4 [16, 16]
0	0xbe69b787	-0.22823916
1	0xbd57f1c0	-0.052720785
2	0xbbbf46c0	-0.0058372915
3	0xbe81e0e8	-0.25366902
4	0x3d788e20	0.060682416
5	0x3e92bc6f	0.28659388
6	0xbe5d405c	-0.21606582
7	0xbe829290	-0.25502443
8	0xbeaaf5b0	-0.3339057
9	0xbdced478	-0.10099119
10	0x3d105740	0.035239458
11	0x3c817160	0.015801132
12	0x3b10ff80	0.0022124946
13	0xbda3fae8	-0.08006841
14	0xbdc56040	-0.09637499
15	0xbe0c7ab4	-0.13718683
16	0xbee933c7	-0.45547315
17	0xbe89f94b	-0.26948008
18	0x3ef995ac	0.48747003
19	0x3e800915	0.2500693
20	0xbe40610a	-0.18787017
21	0xbedbebe1	-0.429534
22	0xbec53207	-0.3851473
23	0xbef1075b	-0.47075924
24	0xbe510646	-0.2041255
25	0xbed95816	-0.42450017
26	0x3f1f742d	0.62286645
27	0x3d9f7ee4	0.07787874
28	0x3cfdb38c	0.030969404
29	0xbea8e7d7	-0.3298938
30	0xbe6c628b	-0.23084466
31	0xbdb0fe3c	-0.08642241
32	0x3b89b9f1	0.004203074
33	0x3e8eac46	0.2786581
34	0x3db2139b	0.08695146
35	0xbed17481	-0.40909198
36	0xbca2c3f7	-0.019868834
37	0xbc84f480	-0.016229868
38	0xbe9598c4	-0.29218113
39	0x3d99b0f9	0.07504458
40	0xbea4e010	-0.32202196
41	0xbe5f6b29	-0.21818222
42	0xbfcd635f	-1.6045951
43	0x3eb07d3d	0.3447055
44	0x3e9be5ec	0.30448854
45	0xbe90c349	-0.2827399
46	0xbf31fb35	-0.69523937
47	0x3c027b80	0.007964015
48	0x3e401330	0.1875732
49	0xbb1ab903	-0.002360881
50	0xbef47a6d	-0.47749653
51	0xbdec32ec	-0.1153315
52	0x3e3422d1	0.17591406
53	0xbe839aac	-0.25703943
54	0x3e70dd46	0.23521909
55	0x3ec812c0	0.39076805
56	0x3d4d6758	0.050147384
57	0x3e75d86a	0.24008337
58	0xbf751727	-0.9573845
59	0xbea6258a	-0.32450515
60	0xbd133a64	-0.035944358
61	0x3d9e3f1b	0.0772688
62	0xbf641c1f	-0.8910541
63	0xbecf8059	-0.4052761
64	0x3e231324	0.1592527
65	0xbe8026be	-0.25029558
66	0xbe4b4d43	-0.19853692
67	0xbedaf087	-0.42761633
68	0xbe87e4ff	-0.26541898
69	0xbde3ece4	-0.11129168
70	0x3d891ad0	0.06694567
71	0x3ef5d92a	0.48017246
72	0x3ea6ad65	0.32554165
73	0xbeb4d2ae	-0.35316986
74	0x3fb36cc4	1.4017568
75	0x3ea878f1	0.3290477
76	0xbe8c4570	-0.27396727
77	0x3ec12efe	0.37731165
78	0x3f2c6d6f	0.6735448
79	0xbed887a9	-0.42291
80	0x3ea50695	0.32231584
81	0xbe27d1d0	-0.16388631
82	0xbe470a48	-0.19437516
83	0x3ea336db	0.3187779
84	0x3e3da216	0.18518862
85	0x3d118cf8	0.03553483
86	0x3eb14593	0.34623393
87	0xbec84e61	-0.39122298
88	0xbedbf471	-0.42959931
89	0x3e7a421a	0.24439278
90	0xbe00ec80	-0.12590218
91	0x3ea23d25	0.31687275
92	0xbc822550	-0.015886933
93	0xbe016812	-0.12637356
94	0x3eab9a21	0.3351603
95	0x3e995b3b	0.29952416
96	0xbe48d8b9	-0.19613923
97	0x3eb5fa39	0.35542467
98	0xbef6c4ed	-0.48197117
99	0x3eacd60d	0.33757058
100	0x3eab78bc	0.3349055
101	0x3ed1d9e1	0.4098654
102	0xbead7111	-0.33875325
103	0x3ea802fa	0.3281477
104	0xbe0e080c	-0.13870257
105	0xbbd9f540	-0.0066515505
106	0xbfaaacdb	-1.3334001
107	0x3e0ff292	0.14057377
108	0x3a107642	0.0005510786
109	0x3c0ca26b	0.008583645
110	0xbf262b34	-0.6490967
111	0xbedb0ab9	-0.42781618
112	0x3e297ee3	0.1655231
113	0xbdfa2990	-0.12214959
114	0x3e916cb8	0.28403258
115	0xbeb9fe3d	-0.3632678
116	0xbe7b7b7e	-0.24558827
117	0xbd49f818	-0.049308866
118	0x3e2edb56	0.17075858
119	0xbe977a26	-0.2958538
120	0xbd8f4448	-0.069954455
121	0xbe849fac	-0.2590307
122	0x3f9570de	1.1675069
123	0xbd3dabc8	-0.0463064
124	0x3ebd9f43	0.3703557
125	0x3ccd2378	0.025041327
126	0x3f92c58c	1.1466537
127	0xbec05050	-0.37561274
128	0xbec8acbc	-0.39194286
129	0xbe09b416	-0.13447604
130	0x3e86378f	0.26214263
131	0xbe8077a0	-0.25091267
132	0xbe1dfa83	-0.15427594
133	0xbbc0a580	-0.005879104
134	0x3e7b1716	0.24520525
135	0x3d8b119b	0.06790467
136	0xbe82424c	-0.25441206
137	0x3e1d7d92	0.15379933
138	0x3ebd1389	0.36928967
139	0x3e82b86d	0.2553133
140	0x3e329689	0.17440237
141	0xbea2f4c8	-0.31827378
142	0x3e08506b	0.13311927
143	0xbe1aae72	-0.15105608
144	0x3ea1086b	0.31451735
145	0xbadf9418	-0.0017057685
146	0xbf0427bf	-0.5162315
147	0x3d72a308	0.05923751
148	0x3efb8f89	0.49132946
149	0x3cfb9e20	0.030715048
150	0x3e876c37	0.2644975
151	0xbe902246	-0.2815115
152	0xbe8f1713	-0.27947292
153	0x3ce3eb30	0.027822107
154	0xbfa31d77	-1.2743367
155	0xbbab40c0	-0.0052262247
156	0x3e1cc211	0.15308405
157	0xbd991ea1	-0.07476545
158	0xbe98c825	-0.29840198
159	0xbe914ae2	-0.28377444
160	0xbd0598dc	-0.03261648
161	0x3ba0e89b	0.004910541
162	0x3e833ae7	0.25630876
163	0xbd345550	-0.044026673
164	0x3e112604	0.14174658
165	0x3cb70690	0.022341996
166	0xbe564474	-0.2092455
167	0xbe62d87b	-0.22152893
168	0x3d9d8cdc	0.076928824
169	0xbe6b247a	-0.22963133
170	0x3c0b49db	0.008501495
171	0x3e2b3ee2	0.16723207
172	0x3d996c84	0.07491401
173	0xbea6016d	-0.32422963
174	0xbdf4934e	-0.11942159
175	0x3e59bf1a	0.21264306
176	0xbde92344	-0.113836795
177	0x3de770a4	0.11300781
178	0xbdd447d8	-0.103652656
179	0xbe4747ef	-0.19461034
180	0x3ed47c87	0.41501257
181	0xbc78c780	-0.015184283
182	0x3e300dba	0.17192736
183	0xbe2b394d	-0.16721077
184	0xbe83b544	-0.25724232
185	0x3e63204a	0.22180286
186	0x3ef76af8	0.48323798
187	0x3ebb9cff	0.36643216
188	0xbe32f98f	-0.17478012
189	0xbe971e12	-0.2951513
190	0x3f01941d	0.5061663
191	0x3e9c3949	0.30512455
192	0xbed05900	-0.40692902
193	0xbd723ca0	-0.059139848
194	0xbe28b062	-0.16473535
195	0xbe1b823e	-0.15186402
196	0x3d748ce0	0.05970466
197	0x3eb86529	0.3601468
198	0x3ebe02c1	0.37111476
199	0xbd71d408	-0.0590401
200	0xbd2d1b28	-0.042262226
201	0x3ec11cb9	0.37717226
202	0xbd56a1f8	-0.05240056
203	0x3e60ab42	0.2194033
204	0xbe9cb376	-0.30605668
205	0x3da9a704	0.08283809
206	0x3de98a64	0.11403349
207	0x3d29d8f8	0.041466683
208	0x3e670bdd	0.22563119
209	0xbe320ab6	-0.17386898
210	0x3f2e2cf0	0.6803732
211	0xbd8ccb7c	-0.06874749
212	0xbee76f61	-0.45202163
213	0x3eb22c45	0.347994
214	0xbdb1b278	-0.08676618
215	0xbe59baa9	-0.21262611
216	0xbe2ad88e	-0.16684172
217	0xbea480d7	-0.32129547
218	0x3fb2c24e	1.3965547
219	0x3e1be296	0.15223154
220	0x3ebc53a5	0.36782566
221	0xbb165f1e	-0.0022944878
222	0x3f5f7236	0.8728365
223	0xbd2205f8	-0.039556473
224	0x3e2f66e2	0.1712909
225	0xbe495ea9	-0.19665016
226	0x3e084e27	0.13311063
227	0x3ea476bb	0.32121834
228	0x3ea91404	0.33023083
229	0xbd90b280	-0.07065296
230	0xbed1e616	-0.40995854
231	0x3e9f9ec0	0.31175804
232	0x3ec5dcd3	0.38645038
233	0x3e7af132	0.24506071
234	0x3f2e4c16	0.6808485
235	0x3eb74eaf	0.35802218
236	0x3e692a16	0.22769961
237	0xbe84db29	-0.25948456
238	0x3f406b8b	0.751641
239	0x3e176e02	0.14788058
240	0xbf761970	-0.96132565
241	0xbf2aba91	-0.6669093
242	0xbea8b046	-0.32946986
243	0x3e725cd2	0.2366822
244	0xbd9bf285	-0.07614616
245	0xbe89295a	-0.2678936
246	0xbe414145	-0.18872555
247	0x3d9310fc	0.07180974
248	0x3eb253eb	0.3482965
249	0xbd9bc1f8	-0.07605356
250	0x3e9d4985	0.30720153
251	0xbeafe5ca	-0.34355003
252	0xbe85c52e	-0.26127
253	0xbf2bd824	-0.6712668
254	0x3e1d8126	0.15381297
255	0xbe214ad2	-0.15751198

std.constant2 f4 [1, 16]
0	0x3e8ed42e	0.27896255
1	0xbf464ebe	-0.774639
2	0xbf7e0f17	-0.99241775
3	0xbeed2b75	-0.46322218
4	0x3f4b83e6	0.79498136
5	0x3e78814c	0.24268073
6	0xbeda4305	-0.42629257
7	0x3f0f3a81	0.55948645
8	0xbf569262	-0.8381711
9	0xbed9bdb9	-0.4252756
10	0x3e8623aa	0.26199085
11	0xbf2ecf9f	-0.68285555
12	0xbe8fc65e	-0.2808103
13	0x3f367861	0.71277434
14	0x3ecc02ba	0.3984583
15	0xbf8a3738	-1.0798101
